Models/efficientnet_b0.onnx (onnx, 619753 bytes, 25 tensors)

base_model.features.1.0.block.1.fc1.bias f4 [8]
0	0xbf927516	-1.1441982
1	0xbdf7dd77	-0.12102788
2	0xbf921b9f	-1.1414679
3	0xbf81182f	-1.0085505
4	0xbfd13ba0	-1.6346321
5	0xbfd182e6	-1.6368072
6	0xbfb438df	-1.4079856
7	0xbf282e4b	-0.6569564

base_model.features.1.0.block.1.fc2.bias f4 [32]
0	0x3fdea5e9	1.7394382
1	0x404049e9	3.004511
2	0xbf0ad7e3	-0.54235667
3	0xbe0b4133	-0.1359909
4	0x4027e14e	2.6231265
5	0x3f8c3bbc	1.095573
6	0x3f38ce16	0.7218946
7	0xbf4c5730	-0.7982054
8	0x4018ae8e	2.385654
9	0x3f85613a	1.0420296
10	0x3eb823e3	0.3596488
11	0xbdeb784b	-0.114975534
12	0x3f17847d	0.59186536
13	0xbf01e290	-0.5073633
14	0x400d6375	2.2091954
15	0x3f318f94	0.6935971
16	0x3f069897	0.52576584
17	0x3ec232ed	0.37929478
18	0xbf3ea8cf	-0.7447633
19	0xbff89309	-1.9419872
20	0x3fc7015e	1.5547292
21	0x3f54fd0c	0.8319862
22	0xbf97a64d	-1.1847626
23	0x40101f51	2.2519114
24	0xbfc06a69	-1.5032474
25	0xbf6fad61	-0.9362393
26	0x40151c6d	2.32986
27	0x4032ea86	2.7955642
28	0x3d7048ba	0.058663107
29	0xbf9b6436	-1.2139957
30	0x404b0f58	3.1728115
31	0xc00759f6	-2.1148658

base_model.features.2.0.block.2.fc1.bias f4 [4]
0	0x3ee55ff8	0.4479978
1	0x3fd5f12e	1.6714227
2	0xbcffd286	-0.031228315
3	0xbe0498e9	-0.12948956

base_model.features.2.1.block.2.fc1.bias f4 [6]
0	0xbea54086	-0.3227579
1	0xbeef0b92	-0.46688515
2	0x4010ae7e	2.2606502
3	0x3fb91e5a	1.4462388
4	0x4021121b	2.51673
5	0x3f97a919	1.184848

base_model.features.3.0.block.2.fc1.bias f4 [6]
0	0x3f2c5d20	0.673296
1	0x3f2a6514	0.6656048
2	0x3e93ec52	0.28891236
3	0x3e51e201	0.2049637
4	0x3f5da6c7	0.8658261
5	0x3f1f534e	0.6223649

base_model.features.3.1.block.2.fc1.bias f4 [10]
0	0x3f7868b4	0.97034764
1	0x3f7986a8	0.97471094
2	0x4017f828	2.3745213
3	0xbd6d8598	-0.057988733
4	0x3fcdf457	1.6090192
5	0x3fab6b76	1.339217
6	0x3f6994ae	0.9124249
7	0x3f816efa	1.0111992
8	0x3f8c2aa6	1.0950515
9	0x3f7fcfb8	0.9992633

base_model.features.4.0.block.2.fc1.bias f4 [10]
0	0xbe69c17c	-0.22827715
1	0xbe927024	-0.28601182
2	0xbe509d5e	-0.20372531
3	0xbeab62bd	-0.3347377
4	0x3e3bf56d	0.18355341
5	0x3e9eb748	0.30999207
6	0xbe41d84e	-0.1893017
7	0x3e89111d	0.2677087
8	0x3e3cce7b	0.18438141
9	0xbd2172d2	-0.03941614

base_model.features.4.1.block.2.fc1.bias f4 [20]
0	0x3f4bad83	0.7956163
1	0x3fcff6a6	1.6247146
2	0x3f451fe1	0.7700177
3	0x3eba3eae	0.36375946
4	0x3fe8154a	1.8131497
5	0x3f58fa28	0.8475671
6	0xbde616b4	-0.11234799
7	0x3f0449f0	0.5167532
8	0x3f19725f	0.5994014
9	0x3f1b54d2	0.606763
10	0x3f83e628	1.0304613
11	0xbe5dc10e	-0.21655676
12	0x3fa05d84	1.2528539
13	0x3fb8674d	1.4406525
14	0x3f2b8d35	0.6701234
15	0x3fadb98c	1.357225
16	0x3fd1b2ef	1.6382731
17	0x3f91928b	1.1372846
18	0x3f1c70ab	0.6110942
19	0x3f6e0da3	0.9298956

base_model.features.4.2.block.2.fc1.bias f4 [20]
0	0x3ffa1460	1.9537468
1	0x3f8da65a	1.1066391
2	0x3ee31edb	0.44359478
3	0x3f929495	1.1451594
4	0x3c242703	0.010019067
5	0x3f207849	0.6268354
6	0x3f465cb2	0.7748519
7	0x3f850099	1.0390807
8	0x3f280905	0.6563876
9	0x3ea9ce57	0.33165237
10	0x3f74b877	0.9559397
11	0x3fa3912c	1.2778678
12	0x3faef98f	1.3669909
13	0x3f7c286e	0.9849919
14	0x3f4e4113	0.80568045
15	0x3f0a2dc0	0.5397606
16	0x3f532e92	0.82492936
17	0x3f56631e	0.8374499
18	0x3f2caadd	0.67448217
19	0x3ee19ce6	0.44065017

base_model.features.5.0.block.2.fc1.bias f4 [20]
0	0x3f3b650d	0.73201066
1	0x3f0171f4	0.50564504
2	0x3fe32aa8	1.7747393
3	0x3f94408d	1.1582199
4	0x3fb1b12b	1.3882192
5	0x3f44dc85	0.76898986
6	0x3fc11b2c	1.5086417
7	0x3f2beb90	0.67156315
8	0x3fa6851a	1.3009369
9	0x3de25d85	0.11052994
10	0x3fd4cfad	1.6625878
11	0xbe609a61	-0.21933891
12	0xbe2f087d	-0.17093082
13	0x3f600fa9	0.87523896
14	0x3ff5879d	1.9182011
15	0x3fd0eeab	1.6322836
16	0x3f2527cf	0.6451387
17	0x3f4c3274	0.79764485
18	0x3f8dd627	1.1080979
19	0x3fb01365	1.3755919

base_model.features.5.1.block.2.fc1.bias f4 [28]
0	0x3f38a25d	0.72122747
1	0x3f23dfcc	0.6401336
2	0x3f777e28	0.96676874
3	0x3f8d2b23	1.1028789
4	0x3fbefdd4	1.4921212
5	0x3f7fd6d9	0.99937207
6	0x3f709393	0.9397518
7	0x3f6678dd	0.9002817
8	0x3e67880c	0.22610492
9	0x3f90e98d	1.1321274
10	0x3e6dee75	0.23235495
11	0x3f17c59a	0.5928589
12	0x3f4c4213	0.7978832
13	0x3f448145	0.7675975
14	0x3f91892a	1.1369984
15	0x3efb5ec5	0.4909574
16	0x3ee64769	0.44976357
17	0x3fb52ca8	1.4154253
18	0x3f4b62ad	0.7944744
19	0x3f865f9c	1.0497928
20	0x3f27a9bc	0.6549337
21	0x3f91aa8c	1.1380172
22	0x3f9a2a17	1.2044095
23	0x3e9362a0	0.28786182
24	0x3f6738a4	0.903208
25	0x3f8d2249	1.1026088
26	0x3f1fcc04	0.6242068
27	0x3f908c68	1.1292849

base_model.features.5.2.block.2.fc1.bias f4 [28]
0	0x3f0db76b	0.55358
1	0x3f58b821	0.8465596
2	0x3ee5738f	0.44814727
3	0x3f2d6c28	0.6774316
4	0x3f013a57	0.50479645
5	0x3eee8b68	0.46590734
6	0x3f4970bd	0.7868765
7	0x3ed8fd12	0.42380577
8	0x3ec2c1de	0.38038534
9	0x3f3dac17	0.74090713
10	0x3f300153	0.6875202
11	0x3f593602	0.84848034
12	0x3ebc658a	0.36796218
13	0x3f21ccd8	0.6320319
14	0x3f49f979	0.7889629
15	0x3f0b8bb2	0.54510033
16	0x3f389b7f	0.7211227
17	0x3ef4c3ce	0.47805637
18	0x3f7d642c	0.98980975
19	0x3f247550	0.64241505
20	0x3fbdb6f6	1.482146
21	0x3f43c0e2	0.7646619
22	0x3f90df27	1.1318101
23	0x3ee599e9	0.44843987
24	0x3e555e8f	0.20836852
25	0x3f901147	1.1255273
26	0x3f2aab2e	0.6666745
27	0x3e82ea28	0.25569272

base_model.features.6.0.block.2.fc1.bias f4 [28]
0	0x3e8915cd	0.26774445
1	0x3edf789a	0.436467
2	0x3db94a8f	0.09047424
3	0x3fd57498	1.6676207
4	0x3ebe19ee	0.37129158
5	0x3ef0f540	0.4706211
6	0x3ebe3603	0.37150583
7	0x3db29a26	0.08720808
8	0x3efaafa0	0.48962116
9	0x3e4396ac	0.19100446
10	0x3e3cd035	0.184388
11	0x3c9eb0cf	0.019371418
12	0x3f851d0d	1.039949
13	0x3f49672c	0.7867305
14	0x3f5054ed	0.81379586
15	0xbc8664f4	-0.01640556
16	0x3f1b5e8a	0.6069113
17	0x3d73ac60	0.05949056
18	0x3e9d8776	0.3076741
19	0x3d34eb51	0.044169728
20	0x3dbec15d	0.09314225
21	0x3edc8edb	0.4307774
22	0x3edf882b	0.43658575
23	0x3f546e02	0.8298036
24	0x3c58af10	0.013225332
25	0xbcc27842	-0.023738984
26	0x3de6b188	0.1126433
27	0xbfa75b3c	-1.3074718

base_model.features.6.1.block.2.fc1.bias f4 [48]
0	0x3ef3f13d	0.47644988
1	0x3e71c2a5	0.23609407
2	0xbce2fb41	-0.027707698
3	0x3dcaa883	0.09895422
4	0x3deebceb	0.11657127
5	0xbe2fc483	-0.17164807
6	0xbd5be47a	-0.05368469
7	0xbdbb9c91	-0.09160722
8	0x3f12f002	0.5739747
9	0xbef20290	-0.4726758
10	0x3d2c86bf	0.04212069
11	0xbe990e19	-0.29893568
12	0x3f354667	0.7081055
13	0xbed99e0a	-0.42503387
14	0x3de1c7e6	0.11024456
15	0xbdad3689	-0.084576674
16	0x3f1d06bf	0.6133842
17	0x3e249a2b	0.16074435
18	0x3e8c8cbc	0.27451122
19	0x3e3602cf	0.17774509
20	0x3db0c51c	0.08631346
21	0x3efd71ff	0.49501035
22	0xbde10a30	-0.10988271
23	0xbcee85d7	-0.029116554
24	0x3efd35f1	0.49455217
25	0x3ef8a20b	0.4856113
26	0xbdfc5f84	-0.12322906
27	0x3cc8ce44	0.024512418
28	0x3f7944f0	0.97370815
29	0x3cc353f9	0.023843752
30	0x3df929b5	0.12166158
31	0x3ed03008	0.40661645
32	0x3f07ca7d	0.5304335
33	0x3e37d17a	0.17951003
34	0x3f1cdbec	0.61273074
35	0x3eb4e2d5	0.3532931
36	0x3e4d908f	0.20074676
37	0xbc7126d9	-0.014718735
38	0x3e1f74dc	0.15571922
39	0x3ee192df	0.44057366
40	0x3f7b90b7	0.9826769
41	0x3e6c967e	0.23104283
42	0x3e115915	0.14194138
43	0xbe2ba0d5	-0.16760571
44	0x3d190ca1	0.03736556
45	0x3ee37929	0.44428375
46	0xbe9e6d52	-0.3094278
47	0x3eeb3ee4	0.4594642

base_model.features.6.2.block.2.fc1.bias f4 [48]
0	0xbf18ba96	-0.5965971
1	0x3fbcf2d1	1.4761602
2	0x3ec34070	0.381351
3	0x3e41e4e4	0.18934971
4	0xbe500d5d	-0.20317598
5	0x3de931ef	0.11386477
6	0x3ed653b3	0.41860732
7	0xbbfbbda9	-0.0076825214
8	0x3e12e5e4	0.14345509
9	0x3e91af39	0.28453997
10	0x3ed0721c	0.4071206
11	0x3e8e381c	0.27777183
12	0x3f5d2840	0.8638954
13	0xbecd552d	-0.40104046
14	0x3e5bab75	0.21452124
15	0x3f2fadd6	0.6862463
16	0x3f4ed8c8	0.8079953
17	0xbeb226af	-0.34795138
18	0x3f0e4fd5	0.55590564
19	0x3a9a6f42	0.0011782425
20	0x3ec275db	0.37980542
21	0x3e9f9e7c	0.311756
22	0x3e22ff3c	0.15917677
23	0x3f56348c	0.8367393
24	0x3e3c8e08	0.18413556
25	0xbdd1ba53	-0.10240617
26	0x3e94c564	0.29056847
27	0x3f44aa70	0.76822567
28	0x3ef3bbc4	0.4760419
29	0xbeced797	-0.40398857
30	0x3f35c818	0.71008444
31	0x3e88095a	0.26569635
32	0x3efc650f	0.49295852
33	0x3f14812f	0.5800962
34	0x3ecb0339	0.39650896
35	0x3e2fc8ac	0.17166394
36	0x3e0d6507	0.1380807
37	0x3e836e9c	0.25670326
38	0x3f07d578	0.530601
39	0xbe2de1fc	-0.16980737
40	0x3f25e897	0.6480803
41	0xbd8168e7	-0.06318837
42	0x3f66502f	0.899661
43	0x3e811d36	0.252176
44	0x3ed569f5	0.416824
45	0xbe57b508	-0.21065152
46	0x3e4b75e3	0.19869189
47	0x3f3b62f1	0.7319785

base_model.features.6.3.block.2.fc1.bias f4 [48]
0	0x3fd4d828	1.6628466
1	0x3d634ec2	0.05549503
2	0x3e0b4398	0.13600004
3	0xbdb0055a	-0.08594771
4	0x3c754b22	0.014971526
5	0xbe633739	-0.22189035
6	0x3f294b33	0.6613037
7	0x3e468034	0.19384843
8	0x3f96001f	1.1718787
9	0x3ec674c5	0.38760963
10	0xbe84b7b7	-0.25921413
11	0xbc2b90f4	-0.010471571
12	0x3fb65bb8	1.424674
13	0xbebc3485	-0.3675882
14	0x3ce2b8b9	0.027675973
15	0x3ffc5eeb	1.9716467
16	0x3e44ce6a	0.19219366
17	0x3e615e30	0.22008586
18	0x3f433eb5	0.7626756
19	0x3f8017f4	1.000731
20	0xbcf9196a	-0.030407626
21	0x3e4da6e4	0.20083195
22	0x3fb36156	1.401408
23	0x3db530bd	0.08847187
24	0x3ed601f8	0.41798377
25	0x3f887f52	1.0663855
26	0x3ced8c14	0.028997459
27	0xbeb5c602	-0.3550263
28	0xbe141a8b	-0.1446325
29	0x3dce1190	0.100619435
30	0x3e70bf49	0.2351047
31	0x3edf13f2	0.43569905
32	0x3e327a29	0.17429413
33	0x3ee0f70c	0.43938482
34	0x3dc0ae68	0.09408265
35	0x3e3f5bb0	0.1868732
36	0x3fae6cdd	1.3626972
37	0x3e82a1a1	0.25513938
38	0x3e390fe9	0.18072475
39	0xbe02fade	-0.1279101
40	0x3f142c91	0.578805
41	0x3e8b57ed	0.2721552
42	0x3deeeb61	0.11665989
43	0xbd410f17	-0.04713353
44	0x3e467f1b	0.19384424
45	0x3e146606	0.14492044
46	0xbc8ffec7	-0.017577542
47	0xbe058a13	-0.13040952

base_model.features.7.0.block.2.fc1.bias f4 [48]
0	0xbc852cc4	-0.016256697
1	0xbca7fb14	-0.020505466
2	0xbcca85ca	-0.024721999
3	0xbd253a5e	-0.040338866
4	0xbea0c725	-0.31401935
5	0xbe0477cd	-0.12936325
6	0xbd3b7fb1	-0.045776073
7	0xbd16bd80	-0.036801815
8	0xbcb4fce1	-0.022093238
9	0xbe3b61c6	-0.18299016
10	0xbc1f9fdb	-0.009742702
11	0x3b458fb7	0.0030145475
12	0xbcd6171a	-0.026134063
13	0xbd01228d	-0.03152709
14	0xbd4c3fa0	-0.049865365
15	0xbcb7d95f	-0.022442518
16	0xbc3650f4	-0.011127699
17	0x3c0e035a	0.008667791
18	0xbcb07148	-0.021538392
19	0xbc7f41f1	-0.0155796865
20	0xbc2420af	-0.010017558
21	0x3df2a0ce	0.11847077
22	0xbc8e75c8	-0.017390147
23	0xbca2a7f6	-0.01985548
24	0xbc09ef8b	-0.008418928
25	0xbc96a5c9	-0.0183896
26	0xbcec3dc5	-0.028838048
27	0xbcab9256	-0.020943802
28	0xbd3dc4ec	-0.046330377
29	0xbca4dc30	-0.020124525
30	0xbd09e6d0	-0.033667386
31	0xbca558d4	-0.020183958
32	0xbc64da4f	-0.013968064
33	0xbcc43756	-0.023952167
34	0xbd146be1	-0.036235694
35	0xbe157ec3	-0.14599137
36	0xbcd61bcf	-0.026136307
37	0xbd2bfbc8	-0.041988164
38	0xbe5243a8	-0.20533621
39	0xbc8a9fdf	-0.016921936
40	0x3d900ad1	0.07033313
41	0xbca31c11	-0.019910844
42	0xbc68d01d	-0.014209774
43	0xbc599539	-0.013280206
44	0xbf087938	-0.53309965
45	0xbc8a21ab	-0.016861757
46	0xbf337f4b	-0.7011611
47	0xbe2474c4	-0.16060168

base_model.classifier.1.bias f4 [12]
0	0xbe80c704	-0.25151837
1	0xbd653c5f	-0.055965777
2	0xbdc2e20d	-0.09515772
3	0x3e7b7757	0.24557243
4	0x3e1008c6	0.14065847
5	0x3daeb6a2	0.08530928
6	0x3e4d6f93	0.20062093
7	0x3d4b6597	0.04965743
8	0xbe99dc10	-0.30050707
9	0x3e23bb24	0.15989357
10	0xbe957e5f	-0.29197976
11	0xbe5a9600	-0.21346283

input_bias f4 [32]
0	0x40123a43	2.284806
1	0x400b4057	2.175802
2	0x40237f7a	2.5546556
3	0x3f94a5fa	1.1613152
4	0x4011ec67	2.2800539
5	0x3fa77bff	1.3084716
6	0xc12e24d9	-10.883996
7	0x41149799	9.287011
8	0x40d74690	6.7273636
9	0xc0438dd2	-3.055531
10	0xc1287d74	-10.530628
11	0x401309cb	2.2974727
12	0xbbf50370	-0.0074772164
13	0xc01f2573	-2.4866607
14	0x40223b1c	2.5348577
15	0x40b8579f	5.760696
16	0x4076300d	3.8466828
17	0xbf52b90c	-0.8231361
18	0x3fde3c3b	1.7362131
19	0x40252fba	2.581038
20	0x40d26046	6.574252
21	0xc085c30c	-4.1800594
22	0xc01b5a89	-2.4274008
23	0x400b24e6	2.174127
24	0xc053e0e7	-3.310602
25	0x3fb34686	1.4005897
26	0x3ff62adc	1.923183
27	0x400f0b2b	2.2350566
28	0x3e863ce4	0.2621833
29	0x411fe762	9.99399
30	0x3f8283eb	1.0196508
31	0x3df8213a	0.121157125

silu_bias f4 [32]
0	0x3e0e1218	0.1387409
1	0xbe8d38c0	-0.2758236
2	0xc067cd86	-3.6219192
3	0x3ff6906f	1.9262828
4	0x40f794b6	7.736903
5	0x4118565f	9.521087
6	0xbfc4aff8	-1.5366201
7	0x3f8fa392	1.1221793
8	0x400823c3	2.1271827
9	0x3d9d6868	0.076859295
10	0xbfbd6278	-1.4795675
11	0x3f4469ae	0.76723754
12	0x40c05e2d	6.011496
13	0x3cf05480	0.029337168
14	0x40d18d26	6.54848
15	0x3eec4ffc	0.46154773
16	0x4097183c	4.7217083
17	0x406ad8c8	3.6694813
18	0x4052a4ec	3.291316
19	0x402f780f	2.7417028
20	0x400e0208	2.218874
21	0x3da2434a	0.079229906
22	0x3e5de386	0.21668825
23	0x3f427442	0.75958645
24	0x3e977c8e	0.29587215
25	0x40542813	3.314946
26	0x4119d5fe	9.614744
27	0x40209355	2.5089924
28	0x4112a73d	9.16583
29	0x3fdbdd69	1.7176944
30	0x40944729	4.6336865
31	0x3f91b7bf	1.13842

mul_bias f4 [16]
0	0xc0a0a83e	-5.0205374
1	0x40832a55	4.0989175
2	0xc22d3bc2	-43.308357
3	0x3f99b982	1.2009737
4	0xc03ce7ff	-2.95166
5	0xc1da6b9e	-27.302547
6	0xc1d1e7e5	-26.23823
7	0x40fcff58	7.90617
8	0x4128eb67	10.557471
9	0xc09fc842	-4.9931955
10	0x42198af0	38.38568
11	0x40439ba3	3.0563743
12	0x41a3885a	20.441578
13	0xc1586f4d	-13.527173
14	0xc0941c70	-4.6284714
15	0xc2230be2	-40.761604

mul_1_bias f4 [24]
0	0x4122a9be	10.166441
1	0xc13463e1	-11.2743845
2	0x403dac5b	2.9636447
3	0x414be6a2	12.743807
4	0x3e45dd96	0.1932281
5	0xc1940708	-18.503433
6	0xc11c7b44	-9.780094
7	0x401fe902	2.4985967
8	0x40f60d12	7.6890955
9	0x40cc6637	6.3874774
10	0x41014467	8.0792
11	0xc04f22b6	-3.2364936
12	0x40981842	4.752961
13	0xc12d7d82	-10.843142
14	0x3d138a5f	0.036020633
15	0xbfc9f04d	-1.5776459
16	0xc10b121a	-8.691919
17	0x4078742a	3.88209
18	0x40df82fb	6.984739
19	0x410063ad	8.024335
20	0x3fb0a5e0	1.3800621
21	0x40dcaebf	6.8963313
22	0x401b989c	2.4311895
23	0x40a911e6	5.283435

mul_2_bias f4 [24]
0	0x40ad0cf2	5.40783
1	0x40ccd9b8	6.401577
2	0x3d02e8b0	0.03196019
3	0xbf893dcb	-1.0721983
4	0x3e9107fc	0.28326404
5	0xc1711807	-15.068366
6	0xc0bd736a	-5.9203386
7	0x40bae499	5.840405
8	0x3ec410f0	0.38294172
9	0xc0b5c51d	-5.6803117
10	0xbff86ec6	-1.9408805
11	0x4117d890	9.490372
12	0x40c30ff6	6.0956984
13	0xc03ac28a	-2.9181237
14	0x4038f566	2.889978
15	0xbe01004e	-0.12597772
16	0x4089ecab	4.31014
17	0xc00542e7	-2.0822084
18	0x403fc00d	2.9960968
19	0xbc8f3ba0	-0.017484486
20	0xc11f55a6	-9.95841
21	0x40479c29	3.1189063
22	0xbf48e029	-0.7846704
23	0x3f364ac2	0.7120782

mul_3_bias f4 [40]
0	0x3ff2d2cf	1.8970584
1	0xc1ada93f	-21.70764
2	0x405a4965	3.4107296
3	0x40c931a3	6.287309
4	0xc0c07f9d	-6.015578
5	0x408d71db	4.4201484
6	0x3ece1dd7	0.4025714
7	0x3fba9a40	1.4578323
8	0x3f4a5b9a	0.7904602
9	0xc1658a6b	-14.346293
10	0xc099b31f	-4.8031154
11	0x41272cb2	10.448412
12	0xc11bd012	-9.738298
13	0xc10a30bd	-8.636899
14	0xc1802700	-16.019043
15	0xc138241b	-11.508815
16	0xc0c9358b	-6.287786
17	0x4120b5a1	10.044343
18	0x40c9e7ca	6.3095446
19	0x40646a9a	3.5690064
20	0x41644c20	14.268585
21	0x40aea496	5.457591
22	0x40a5db1a	5.182996
23	0xc092aa04	-4.583254
24	0x40750a6e	3.8287616
25	0xc11a3577	-9.638053
26	0xc08cccc6	-4.3999968
27	0x40296125	2.6465542
28	0xbf72b081	-0.94800574
29	0x40eba169	7.3634534
30	0xc00ef3aa	-2.233622
31	0x41426529	12.149697
32	0xbe44c9b8	-0.19217575
33	0x3fcf08eb	1.6174597
34	0x41b51aa6	22.638012
35	0xc094c992	-4.6496058
36	0xc09c988a	-4.8936205
37	0x40bfcd81	5.993836
38	0xc0f88f2e	-7.767478
39	0x3e92ee84	0.28697598

mul_4_bias f4 [40]
0	0x4010cdf2	2.26257
1	0x3edcdb30	0.43135977
2	0xbf139336	-0.576465
3	0x3e91a364	0.2844497
4	0xbf6c56e5	-0.9232009
5	0x40734742	3.8012242
6	0xc09a6cb0	-4.8257675
7	0xbeb0b688	-0.3451426
8	0xbfbe37c8	-1.4860773
9	0x3e935a04	0.28779614
10	0xc0893e98	-4.288891
11	0x3f964161	1.1738702
12	0x3fb8430c	1.4395461
13	0xbffca9ad	-1.9739281
14	0x3e9dc6ac	0.30815637
15	0xbe82139e	-0.25405592
16	0xbedce6ac	-0.4314474
17	0xbfa93b0b	-1.3221143
18	0xbe825e50	-0.2546258
19	0xbfbc6806	-1.4719245
20	0x3f02fe9d	0.5116976
21	0x3e968298	0.2939651
22	0xbd0ce5a0	-0.034398675
23	0x4018212b	2.3770244
24	0xbe84a20d	-0.25904885
25	0x3fb6beba	1.4276955
26	0xbf226a72	-0.6344367
27	0x3eddd1ca	0.4332412
28	0xbdf23fc5	-0.11828569
29	0x4040acb0	3.01054
30	0xbe96d1e7	-0.29457018
31	0x3f8cb334	1.0992188
32	0xbf8a4737	-1.0802983
33	0xbf2c7c12	-0.67376816
34	0xc036bed6	-2.8553977
35	0x3fb09f63	1.3798641
36	0xbf59c6ae	-0.85068786
37	0x3efbb944	0.49164784
38	0xbf24920c	-0.6428535
39	0xbed29408	-0.41128564
